…
        "id": "h4C0UzKK0ZCN",
        "outputId": "8823638a-4ea8-488e-c10b-24350aa8398f"
      },
      "source": [
        "model.summary()"
      ],
      "execution_count": null,
      "outputs": [
        {
          "output_type": "stream",
          "name": "stdout",
          "text": [
            "Model: \"sequential_2\"\n",
            "_________________________________________________________________\n",
            "Layer (type)                 Output Shape              Param #   \n",
            "=================================================================\n",
            "conv1d_8 (Conv1D)            (None, 191, 64)           256       \n",
            "_________________________________________________________________\n",
            "conv1d_9 (Conv1D)            (None, 189, 64)           12352     \n",
            "_________________________________________________________________\n",
            "max_pooling1d_2 (MaxPooling1 (None, 63, 64)            0         \n",
            "_________________________________________________________________\n",
            "conv1d_10 (Conv1D)           (None, 61, 128)           24704     \n",
            "_________________________________________________________________\n",
            "conv1d_11 (Conv1D)           (None, 59, 128)           49280     \n",
            "_________________________________________________________________\n",
            "global_average_pooling1d_2 ( (None, 128)               0         \n",
            "_________________________________________________________________\n",
            "dropout_2 (Dropout)          (None, 128)               0         \n",
            "_________________________________________________________________\n",
            "dense_2 (Dense)              (None, 3)                 387       \n",
            "=================================================================\n",
            "Total params: 86,979\n",
            "Trainable params: 86,979\n",
            "Non-trainable params: 0\n",
            "_________________________________________________________________\n"
          ]
        }
      ]
    },
    {
      "cell_type": "code",
      "metadata": {
        "colab": {
…
